apps/working/sannp/code/run/log/params.npz (npz, 7533 bytes, 8 tensors)

dcut f8 []
000000 cd cc cc cc cc cc 18 40
       6.2

Rcut f8 []
000000 66 66 66 66 66 66 fe 3f
       1.9

learningRate f8 []
000000 2d 43 1c eb e2 36 1a 3f
       0.0001

feRatio f8 []
000000 00 00 00 00 00 00 f0 3f
       1.0

featScalerA f8 [1, 80]
000000 00 00 00 e0 ac e0 50 40 00 00 00 e0 81 ec d3 3f
       67.51055145263672 0.3113102614879608
000010 00 00 00 00 73 47 d6 3f 00 00 00 80 97 1b e3 3f
       0.3481109142303467 0.5971181392669678
000020 00 00 00 e0 8d 65 e1 3f 00 00 00 40 71 81 d0 3f
       0.5436467528343201 0.25790053606033325
000030 00 00 00 20 ee b9 c2 3f 00 00 00 60 59 66 b7 3f
       0.14629913866519928 0.0914054736495018
000040 00 00 00 20 19 2a bf 3f 00 00 00 e0 2c c7 bf 3f
       0.12173611670732498 0.1241329237818718
000050 00 00 00 c0 48 43 c6 3f 00 00 00 20 ef 40 c0 3f
       0.17392835021018982 0.12698163092136383
000060 00 00 00 20 56 7e bd 3f 00 00 00 40 74 da ba 3f
       0.11520899087190628 0.10489584505558014
000070 00 00 00 20 8f 99 ba 3f 00 00 00 00 ba 9e b9 3f
       0.10390562564134598 0.10007822513580322
000080 00 00 00 80 51 8d 27 40 00 00 00 e0 91 8f d7 3f
       11.776012420654297 0.36813780665397644
000090 00 00 00 60 6a 8e d0 3f 00 00 00 e0 19 f2 02 40
       0.25869235396385193 2.368213415145874
0000a0 00 00 00 40 7b ed d9 3f 00 00 00 20 59 e5 cc 3f
       0.40511971712112427 0.2257491499185562
0000b0 00 00 00 60 12 9f ca 3f 00 00 00 20 49 3e cd 3f
       0.2079794853925705 0.2284633070230484
0000c0 00 00 00 20 ea ae d8 3f 00 00 00 40 df 36 c9 3f
       0.38567593693733215 0.1969870626926422
0000d0 00 00 00 a0 c3 4c b7 3f 00 00 00 20 df 5a c0 3f
       0.09101507812738419 0.12777318060398102
0000e0 00 00 00 40 c8 04 0a 40 00 00 00 20 72 d0 d2 3f
       3.2523350715637207 0.29397252202033997
0000f0 00 00 00 80 57 c2 b8 3f 00 00 00 20 db de ba 3f
       0.09671542048454285 0.10496301203966141
000100 00 00 00 80 7b ed d9 3f 00 00 00 20 59 e5 cc 3f
       0.40511977672576904 0.2257491499185562
000110 00 00 00 60 12 9f ca 3f 00 00 00 60 49 3e cd 3f
       0.2079794853925705 0.2284633368253708
000120 00 00 00 20 23 07 c8 3f 00 00 00 40 94 3a c2 3f
       0.18771781027317047 0.1424126923084259
000130 00 00 00 60 5e b1 b6 3f 00 00 00 20 3c 7d b6 3f
       0.08864393085241318 0.08784843236207962
000140 00 00 00 00 42 d8 d1 3f 00 00 00 a0 a1 ca c4 3f
       0.2788243293762207 0.16243381798267365
000150 00 00 00 80 0a 42 b1 3f 00 00 00 e0 b8 35 b7 3f
       0.06741395592689514 0.09066348522901535
000160 00 00 00 60 62 ef d0 3f 00 00 00 80 3a ef c2 3f
       0.2646108567714691 0.14792567491531372
000170 00 00 00 60 68 e8 b0 3f 00 00 00 a0 88 a1 b0 3f
       0.06604626029729843 0.06496480852365494
000180 00 00 00 c0 e9 ae d8 3f 00 00 00 60 df 36 c9 3f
       0.385675847530365 0.1969870775938034
000190 00 00 00 80 c3 4c b7 3f 00 00 00 20 df 5a c0 3f
       0.09101507067680359 0.12777318060398102
0001a0 00 00 00 a0 42 d8 d1 3f 00 00 00 60 a1 ca c4 3f
       0.27882447838783264 0.16243378818035126
0001b0 00 00 00 c0 0a 42 b1 3f 00 00 00 e0 b8 35 b7 3f
       0.06741397082805634 0.09066348522901535
0001c0 00 00 00 a0 e0 d5 ac 3f 00 00 00 80 61 c2 a9 3f
       0.056319255381822586 0.0503111332654953
0001d0 00 00 00 e0 13 1c 97 3f 00 00 00 a0 be e3 97 3f
       0.022568045184016228 0.023329714313149452
0001e0 00 00 00 c0 45 14 bd 3f 00 00 00 60 c5 14 b6 3f
       0.11359058320522308 0.08625444024801254
0001f0 00 00 00 20 6a a3 a9 3f 00 00 00 60 34 10 ab 3f
       0.050074879080057144 0.052858006209135056
000200 00 00 00 40 c8 04 0a 40 00 00 00 20 72 d0 d2 3f
       3.2523350715637207 0.29397252202033997
000210 00 00 00 c0 57 c2 b8 3f 00 00 00 c0 da de ba 3f
       0.09671543538570404 0.10496298968791962
000220 00 00 00 80 62 ef d0 3f 00 00 00 60 3a ef c2 3f
       0.2646108865737915 0.14792566001415253
000230 00 00 00 80 68 e8 b0 3f 00 00 00 e0 88 a1 b0 3f
       0.06604626774787903 0.06496482342481613
000240 00 00 00 80 45 14 bd 3f 00 00 00 80 c5 14 b6 3f
       0.11359056830406189 0.08625444769859314
000250 00 00 00 c0 6a a3 a9 3f 00 00 00 a0 34 10 ab 3f
       0.050074897706508636 0.05285801365971565
000260 00 00 00 a0 4a be b0 3f 00 00 00 00 a7 6d ab 3f
       0.06540361791849136 0.053570955991744995
000270 00 00 00 e0 72 25 95 3f 00 00 00 60 97 2c 9c 3f
       0.020650668069720268 0.02751385234296322

featScalerB f8 [1, 80]
000000 00 00 00 00 00 00 00 00 00 00 00 00 00 00 00 00
       0.0 0.0
000010 00 00 00 60 02 8d d1 bf 00 00 00 00 00 00 00 00
       -0.27423152327537537 0.0
000020 00 00 00 00 00 00 00 00 00 00 00 00 00 00 00 00
       0.0 0.0
000030 00 00 00 80 f3 74 6b bf 00 00 00 a0 0a 36 ae bf
       -0.0033516651019454002 -0.05900605395436287
000040 00 00 00 20 22 ee ba bf 00 00 00 00 13 5b 81 bf
       -0.10519612580537796 -0.008474491536617279
000050 00 00 00 60 9d a0 a9 bf 00 00 00 20 5b 30 6e bf
       -0.050053518265485764 -0.0036851672921329737
000060 00 00 00 a0 9a 92 a1 bf 00 00 00 00 05 b9 a4 bf
       -0.0343216247856617 -0.04047408699989319
000070 00 00 00 00 78 80 c6 bf 00 00 00 a0 de 75 c9 bf
       -0.1757955551147461 -0.19890959560871124
000080 00 00 00 00 00 00 00 00 00 00 00 a0 99 26 a5 bf
       0.0 -0.04131012037396431
000090 00 00 00 e0 db 62 ce bf 00 00 00 00 00 00 00 00
       -0.23739193379878998 0.0
0000a0 00 00 00 a0 fa f4 b1 bf 00 00 00 a0 f5 3d b6 bf
       -0.07014433294534683 -0.08688292652368546
0000b0 00 00 00 80 f4 43 e0 bf 00 00 00 00 e8 93 bb bf
       -0.5082952976226807 -0.10772562026977539
0000c0 00 00 00 a0 dc 8d e6 bf 00 00 00 a0 f8 04 d9 bf
       -0.7048171162605286 -0.3909284174442291
0000d0 00 00 00 80 89 59 e0 bf 00 00 00 00 3b 05 e6 bf
       -0.5109298229217529 -0.688138484954834
0000e0 00 00 00 00 00 00 00 00 00 00 00 60 2f 2e be bf
       0.0 -0.11789222806692123
0000f0 00 00 00 60 dc eb e0 bf 00 00 00 40 d7 73 d5 bf
       -0.528791606426239 -0.3351953625679016
000100 00 00 00 c0 fa f4 b1 bf 00 00 00 c0 f5 3d b6 bf
       -0.07014434039592743 -0.08688293397426605
000110 00 00 00 80 f4 43 e0 bf 00 00 00 40 e8 93 bb bf
       -0.5082952976226807 -0.10772563517093658
000120 00 00 00 00 c8 0b a0 bf 00 00 00 20 c5 7c b0 bf
       -0.03133988380432129 -0.06440383940935135
000130 00 00 00 80 3b 04 c3 bf 00 00 00 00 19 6e b1 bf
       -0.14856666326522827 -0.06808620691299438
000140 00 00 00 00 9e d3 e8 bf 00 00 00 20 d9 7b dc bf
       -0.7758321762084961 -0.4450590908527374
000150 00 00 00 e0 91 4e e1 bf 00 00 00 40 78 26 e7 bf
       -0.5408410429954529 -0.7234460115432739
000160 00 00 00 e0 c7 80 bc bf 00 00 00 40 b1 52 ca bf
       -0.11134003847837448 -0.20564857125282288
000170 00 00 00 c0 6d 4d dc bf 00 00 00 40 47 f6 d7 bf
       -0.4422258734703064 -0.374406635761261
000180 00 00 00 40 dc 8d e6 bf 00 00 00 c0 f8 04 d9 bf
       -0.7048169374465942 -0.3909284472465515
000190 00 00 00 40 89 59 e0 bf 00 00 00 00 3b 05 e6 bf
       -0.5109297037124634 -0.688138484954834
0001a0 00 00 00 00 9f d3 e8 bf 00 00 00 c0 d8 7b dc bf
       -0.7758326530456543 -0.44505900144577026
0001b0 00 00 00 00 92 4e e1 bf 00 00 00 80 78 26 e7 bf
       -0.5408411026000977 -0.7234461307525635
0001c0 00 00 00 e0 9c 95 c7 bf 00 00 00 40 1e 9e d4 bf
       -0.18425332009792328 -0.3221507668495178
0001d0 00 00 00 e0 42 ae d9 bf 00 00 00 40 28 b9 d3 bf
       -0.4012610614299774 -0.30817610025405884
0001e0 00 00 00 00 e2 29 e5 bf 00 00 00 60 e2 9f e4 bf
       -0.6613626480102539 -0.6445171236991882
0001f0 00 00 00 a0 7d 62 f1 bf 00 00 00 40 a9 ae ef bf
       -1.0865455865859985 -0.9900709390640259
000200 00 00 00 00 00 00 00 00 00 00 00 40 2f 2e be bf
       0.0 -0.11789222061634064
000210 00 00 00 c0 dc eb e0 bf 00 00 00 e0 d6 73 d5 bf
       -0.5287917852401733 -0.33519527316093445
000220 00 00 00 40 c8 80 bc bf 00 00 00 e0 b0 52 ca bf
       -0.11134006083011627 -0.2056485265493393
000230 00 00 00 80 6d 4d dc bf 00 00 00 80 47 f6 d7 bf
       -0.4422258138656616 -0.37440669536590576
000240 00 00 00 e0 e1 29 e5 bf 00 00 00 60 e2 9f e4 bf
       -0.6613625884056091 -0.6445171236991882
000250 00 00 00 40 7e 62 f1 bf 00 00 00 c0 a9 ae ef bf
       -1.0865461826324463 -0.990071177482605
000260 00 00 00 80 d2 6a c1 bf 00 00 00 20 31 14 cc bf
       -0.13607245683670044 -0.21936620771884918
000270 00 00 00 80 08 b3 ce bf 00 00 00 40 26 1f cf bf
       -0.23983865976333618 -0.24313810467720032

engyScalerA f8 [1, 1]
000000 bf 78 fe 46 10 17 e5 3f
       0.6590653788187167

engyScalerB f8 [1, 1]
000000 60 58 1b 3f 9f f7 d3 3f
       0.31198865092063066
